…
  order: 25
  type: <class 'int'>
  value: null
loss_func:
  computed: CrossEntropyLoss()
  is_explicitly_specified: false
  is_hyperparam: null
  is_meta: null
  name: loss_func
  options: []
  order: 31
  type: <class 'torch.nn.modules.loss.CrossEntropyLoss'>
  value: null
mode:
  computed: <labml_helpers.train_valid.ModeState object at 0x000001D9B31D6920>
  is_explicitly_specified: false
  is_hyperparam: null
  is_meta: null
  name: mode
  options:
  - from_type
  order: 6
  type: <class 'labml_helpers.train_valid.ModeState'>
  value: null
model:
  computed: "Sequential(\n  (0): ResNetBase(\n    (conv): Conv2d(3, 16, kernel_size=(3,\
    \ 3), stride=(2, 2), padding=(1, 1))\n    (bn): BatchNorm2d(16, eps=1e-05, momentum=0.1,\
    \ affine=True, track_running_stats=True)\n    (blocks): Sequential(\n      (0):\
    \ BottleneckResidualBlock(\n        (conv1): Conv2d(16, 8, kernel_size=(1, 1),\
    \ stride=(1, 1))\n        (bn1): BatchNorm2d(8, eps=1e-05, momentum=0.1, affine=True,\
    \ track_running_stats=True)\n        (act1): ReLU()\n        (conv2): Conv2d(8,\
    \ 8, kernel_size=(3, 3), stride=(2, 2), padding=(1, 1))\n        (bn2): BatchNorm2d(8,\
    \ eps=1e-05, momentum=0.1, affine=True, track_running_stats=True)\n        (act2):\
    \ ReLU()\n        (conv3): Conv2d(8, 16, kernel_size=(1, 1), stride=(1, 1))\n\
    \        (bn3): BatchNorm2d(16, eps=1e-05, momentum=0.1, affine=True, track_running_stats=True)\n\
    \        (shortcut): ShortcutProjection(\n          (conv): Conv2d(16, 16, kernel_size=(1,\
    \ 1), stride=(2, 2))\n          (bn): BatchNorm2d(16, eps=1e-05, momentum=0.1,\
    \ affine=True, track_running_stats=True)\n        )\n        (act3): ReLU()\n\
    \      )\n      (1): BottleneckResidualBlock(\n        (conv1): Conv2d(16, 8,\
    \ kernel_size=(1, 1), stride=(1, 1))\n        (bn1): BatchNorm2d(8, eps=1e-05,\
    \ momentum=0.1, affine=True, track_running_stats=True)\n        (act1): ReLU()\n\
    \        (conv2): Conv2d(8, 8, kernel_size=(3, 3), stride=(1, 1), padding=(1,\
    \ 1))\n        (bn2): BatchNorm2d(8, eps=1e-05, momentum=0.1, affine=True, track_running_stats=True)\n\
    \        (act2): ReLU()\n        (conv3): Conv2d(8, 16, kernel_size=(1, 1), stride=(1,\
    \ 1))\n        (bn3): BatchNorm2d(16, eps=1e-05, momentum=0.1, affine=True, track_running_stats=True)\n\
    \        (shortcut): Identity()\n        (act3): ReLU()\n      )\n      (2): BottleneckResidualBlock(\n\
    \        (conv1): Conv2d(16, 8, kernel_size=(1, 1), stride=(1, 1))\n        (bn1):\
    \ BatchNorm2d(8, eps=1e-05, momentum=0.1, affine=True, track_running_stats=True)\n\
    \        (act1): ReLU()\n        (conv2): Conv2d(8, 8, kernel_size=(3, 3), stride=(1,\
    \ 1), padding=(1, 1))\n        (bn2): BatchNorm2d(8, eps=1e-05, momentum=0.1,\
    \ affine=True, track_running_stats=True)\n        (act2): ReLU()\n        (conv3):\
    \ Conv2d(8, 16, kernel_size=(1, 1), stride=(1, 1))\n        (bn3): BatchNorm2d(16,\
    \ eps=1e-05, momentum=0.1, affine=True, track_running_stats=True)\n        (shortcut):\
    \ Identity()\n        (act3): ReLU()\n      )\n      (3): BottleneckResidualBlock(\n\
    \        (conv1): Conv2d(16, 8, kernel_size=(1, 1), stride=(1, 1))\n        (bn1):\
    \ BatchNorm2d(8, eps=1e-05, momentum=0.1, affine=True, track_running_stats=True)\n\
    \        (act1): ReLU()\n        (conv2): Conv2d(8, 8, kernel_size=(3, 3), stride=(1,\
    \ 1), padding=(1, 1))\n        (bn2): BatchNorm2d(8, eps=1e-05, momentum=0.1,\
    \ affine=True, track_running_stats=True)\n        (act2): ReLU()\n        (conv3):\
    \ Conv2d(8, 16, kernel_size=(1, 1), stride=(1, 1))\n        (bn3): BatchNorm2d(16,\
    \ eps=1e-05, momentum=0.1, affine=True, track_running_stats=True)\n        (shortcut):\
    \ Identity()\n        (act3): ReLU()\n      )\n      (4): BottleneckResidualBlock(\n\
    \        (conv1): Conv2d(16, 8, kernel_size=(1, 1), stride=(1, 1))\n        (bn1):\
    \ BatchNorm2d(8, eps=1e-05, momentum=0.1, affine=True, track_running_stats=True)\n\
    \        (act1): ReLU()\n        (conv2): Conv2d(8, 8, kernel_size=(3, 3), stride=(1,\
    \ 1), padding=(1, 1))\n        (bn2): BatchNorm2d(8, eps=1e-05, momentum=0.1,\
    \ affine=True, track_running_stats=True)\n        (act2): ReLU()\n        (conv3):\
    \ Conv2d(8, 16, kernel_size=(1, 1), stride=(1, 1))\n        (bn3): BatchNorm2d(16,\
    \ eps=1e-05, momentum=0.1, affine=True, track_running_stats=True)\n        (shortcut):\
    \ Identity()\n        (act3): ReLU()\n      )\n      (5): BottleneckResidualBlock(\n\
    \        (conv1): Conv2d(16, 8, kernel_size=(1, 1), stride=(1, 1))\n        (bn1):\
    \ BatchNorm2d(8, eps=1e-05, momentum=0.1, affine=True, track_running_stats=True)\n\
    \        (act1): ReLU()\n        (conv2): Conv2d(8, 8, kernel_size=(3, 3), stride=(1,\
    \ 1), padding=(1, 1))\n        (bn2): BatchNorm2d(8, eps=1e-05, momentum=0.1,\
    \ affine=True, track_running_stats=True)\n        (act2): ReLU()\n        (conv3):\
    \ Conv2d(8, 16, kernel_size=(1, 1), stride=(1, 1))\n        (bn3): BatchNorm2d(16,\
    \ eps=1e-05, momentum=0.1, affine=True, track_running_stats=True)\n        (shortcut):\
    \ Identity()\n        (act3): ReLU()\n      )\n      (6): BottleneckResidualBlock(\n\
    \        (conv1): Conv2d(16, 16, kernel_size=(1, 1), stride=(1, 1))\n        (bn1):\
    \ BatchNorm2d(16, eps=1e-05, momentum=0.1, affine=True, track_running_stats=True)\n\
    \        (act1): ReLU()\n        (conv2): Conv2d(16, 16, kernel_size=(3, 3), stride=(1,\
    \ 1), padding=(1, 1))\n        (bn2): BatchNorm2d(16, eps=1e-05, momentum=0.1,\
    \ affine=True, track_running_stats=True)\n        (act2): ReLU()\n        (conv3):\
    \ Conv2d(16, 32, kernel_size=(1, 1), stride=(1, 1))\n        (bn3): BatchNorm2d(32,\
    \ eps=1e-05, momentum=0.1, affine=True, track_running_stats=True)\n        (shortcut):\
    \ ShortcutProjection(\n          (conv): Conv2d(16, 32, kernel_size=(1, 1), stride=(1,\
    \ 1))\n          (bn): BatchNorm2d(32, eps=1e-05, momentum=0.1, affi [[...]]"
  is_explicitly_specified: false
  is_hyperparam: null
  is_meta: null
  name: model
  options:
  - _resnet
  order: 0
  type: <class 'labml_helpers.module.Module'>
  value: null
n_blocks:
  computed:
  - 6
  - 6
  - 6
  is_explicitly_specified: true
  is_hyperparam: null
  is_meta: null
  name: n_blocks
  options: []
  order: 1
  type: typing.List[int]
  value:
…
